…
Thislayeristhenmappedtoa Re LUlayerfollowedbya 40%dropoutlayer, and finally a linear map down to 1 dimension, again with a bias. The total number of trainable parameters is therefore 50 19+50+50+1=1051.

×

The package torchinfo provides a summary() function that neatly sum- marizes this information. We specify the size of the input and see the size of each tensor as it passes through layers of the network.

In[20]: summary(hit_model, input_size=X_train.shape, col_names=['input_size',

'output_size',

'num_params'])

Out[20]:=====================================================================

Layer (type:depth-idx) Input Shape Output Shape Param #

=====================================================================

Hitters Model [175, 19] [175] --

Flatten: 1-1 [175, 19] [175, 19] --

Sequential: 1-2 [175, 19] [175, 1] --

Linear: 2-1 [175, 19] [175, 50] 1,000

Re LU: 2-2 [175, 50] [175, 50] --

Dropout: 2-3 [175, 50] [175, 50] --

Linear: 2-4 [175, 50] [175, 1] 51

=====================================================================

Total params: 1,051

Trainable params: 1,051

We have truncated the end of the output slightly, here and in subsequent uses.

We now need to transform our training data into a form accessible to torch. The basic datatype in torch is a tensor, which is very similar to an ndarray from early chapters. We also note here that torch typically works with 32-bit (single precision) rather than 64-bit (double precision) floatingpointnumbers.Wethereforeconvertourdatatonp.float 32 before forming the tensor. The X and Y tensors are then arranged into a Dataset
…
We can check that the model produces output of expected size based on our existing batch X_ above.

In[38]: mnist_model(X_).size()

Out[38]:torch.Size([256, 10])

Let’stakealookatthesummaryofthemodel.Insteadofaninput_size we can pass a tensor of correct shape. In this case, we pass through the final batched X_ from above.

446 10. Deep Learning

In[39]: summary(mnist_model, input_data=X_, col_names=['input_size',

'output_size',

'num_params'])

Out[39]:=====================================================================

Layer (type:depth-idx) Input Shape Output Shape Param #

=====================================================================

MNISTModel [256, 1, 28, 28] [256, 10] --

Sequential: 1-1 [256, 1, 28, 28] [256, 10] --

Sequential: 2-1 [256, 1, 28, 28] [256, 256] --

Flatten: 3-1 [256, 1, 28, 28] [256, 784] --

Linear: 3-2 [256, 784] [256, 256] 200,960

Re LU: 3-3 [256, 256] [256, 256] --

Dropout: 3-4 [256, 256] [256, 256] --

Sequential: 2-2 [256, 256] [256, 128] --

Linear: 3-5 [256, 256] [256, 128] 32,896

Re LU: 3-6 [256, 128] [256, 128] --

Dropout: 3-7 [256, 128] [256, 128] --

Linear: 2-3 [256, 128] [256, 10] 1,290

=====================================================================

Total params: 235,146

Trainable params: 235,146

Havingsetupboththemodelandthedatamodule,fittingthismodelis now almost identical to the Hitters example. In contrast to our regression model, here we will use the Simple Module.classification() method which

Simple Module.

uses the cross-entropy loss function instead of mean squared error.
…
(128,256)] self.conv = nn.Sequential(*[Building Block(in_, out_) for in_, out_ in sizes]) self.output = nn.Sequential(nn.Dropout(0.5), nn.Linear(2*2*256, 512), nn.Re LU(), nn.Linear(512, 100)) def forward(self, x): val = self.conv(x) val = torch.flatten(val, start_dim=1) return self.output(val)

Webuildthemodelandlookatthesummary.(Wehadcreatedexamples of X_ earlier.)

In[55]: cifar_model = CIFARModel() summary(cifar_model, input_data=X_, col_names=['input_size',

'output_size',

'num_params'])

Out[55]:======================================================================

Layer (type:depth-idx) Input Shape Output Shape Param #

======================================================================

CIFARModel [128, 3, 32, 32] [128, 100] --

Sequential: 1-1 [128, 3, 32, 32] [128, 256, 2, 2] --

Building Block: 2-1 [128, 3, 32, 32] [128, 32, 16, 16] --

Conv 2 d: 3-1 [128, 3, 32, 32] [128, 32, 32, 32] 896

Re LU: 3-2 [128, 32, 32, 32] [128, 32, 32, 32] --

Max Pool 2 d: 3-3 [128, 32, 32, 32] [128, 32, 16, 16] --

Building Block: 2-2 [128, 32, 16, 16] [128, 64, 8, 8] --

Conv 2 d: 3-4 [128, 32, 16, 16] [128, 64, 16, 16] 18,496

Re LU: 3-5 [128, 64, 16, 16] [128, 64, 16, 16] --

Max Pool 2 d: 3-6 [128, 64, 16, 16] [128, 64, 8, 8] --

Building Block: 2-3 [128, 64, 8, 8] [128, 128, 4, 4] --

Conv 2 d: 3-7 [128, 64, 8, 8] [128, 128, 8, 8] 73,856

Re LU: 3-8 [128, 128, 8, 8] [128, 128, 8, 8] --

Max Pool 2 d: 3-9 [128, 128, 8, 8] [128, 128, 4, 4] --

Building Block: 2-4 [128, 128, 4, 4] [128, 256, 2, 2] --

Conv 2 d: 3-10 [128, 128, 4, 4] [128, 256, 4, 4] 295,168

Re LU: 3-11 [128, 256, 4, 4] [128, 256, 4, 4] --

Max Pool 2 d: 3-12 [128, 256, 4, 4] [128, 256, 2, 2] --

Sequential: 1-2 [128, 1024] [128, 100] --

Dropout: 2-5 [128, 1024] [128, 1024] --

Linear: 2-6 [128, 1024] [128, 512] 524,800

10.9 Lab: Deep Learning 451

Re LU: 2-7 [128, 512] [128, 512] --

Linear: 2-8 [128, 512] [128, 100] 51,300

======================================================================

Total params: 964,516

Trainable params: 964,516

The total number of trainable parameters is 964,516. By studying the size of the parameters, we can see that the channels halve in both dimensions after each of these max-pooling operations. After the last of these we have a layer with 256 channels of dimension 2 2. These are then flattened to
…
